7767517
629 803
Input                    in0                      0 1 in0
Split                    splitncnn_input0         1 8 in0 in0_splitncnn_0 in0_splitncnn_1 in0_splitncnn_2 in0_splitncnn_3 in0_splitncnn_4 in0_splitncnn_5 in0_splitncnn_6 in0_splitncnn_7
Input                    in1                      0 1 in1
Split                    splitncnn_input1         1 7 in1 in1_splitncnn_0 in1_splitncnn_1 in1_splitncnn_2 in1_splitncnn_3 in1_splitncnn_4 in1_splitncnn_5 in1_splitncnn_6
Input                    in2                      0 1 in2
MemoryData               block0.convblock.0.beta  0 1 block0.convblock.0.beta 0=1 1=1 2=192
Split                    splitncnn_0              1 2 block0.convblock.0.beta block0.convblock.0.beta_splitncnn_0 block0.convblock.0.beta_splitncnn_1
MemoryData               block0.convblock.1.beta  0 1 block0.convblock.1.beta 0=1 1=1 2=192
Split                    splitncnn_1              1 2 block0.convblock.1.beta block0.convblock.1.beta_splitncnn_0 block0.convblock.1.beta_splitncnn_1
MemoryData               block0.convblock.2.beta  0 1 block0.convblock.2.beta 0=1 1=1 2=192
Split                    splitncnn_2              1 2 block0.convblock.2.beta block0.convblock.2.beta_splitncnn_0 block0.convblock.2.beta_splitncnn_1
MemoryData               block0.convblock.3.beta  0 1 block0.convblock.3.beta 0=1 1=1 2=192
Split                    splitncnn_3              1 2 block0.convblock.3.beta block0.convblock.3.beta_splitncnn_0 block0.convblock.3.beta_splitncnn_1
MemoryData               block0.convblock.4.beta  0 1 block0.convblock.4.beta 0=1 1=1 2=192
Split                    splitncnn_4              1 2 block0.convblock.4.beta block0.convblock.4.beta_splitncnn_0 block0.convblock.4.beta_splitncnn_1
MemoryData               block0.convblock.5.beta  0 1 block0.convblock.5.beta 0=1 1=1 2=192
Split                    splitncnn_5              1 2 block0.convblock.5.beta block0.convblock.5.beta_splitncnn_0 block0.convblock.5.beta_splitncnn_1
MemoryData               block0.convblock.6.beta  0 1 block0.convblock.6.beta 0=1 1=1 2=192
Split                    splitncnn_6              1 2 block0.convblock.6.beta block0.convblock.6.beta_splitncnn_0 block0.convblock.6.beta_splitncnn_1
MemoryData               block0.convblock.7.beta  0 1 block0.convblock.7.beta 0=1 1=1 2=192
Split                    splitncnn_7              1 2 block0.convblock.7.beta block0.convblock.7.beta_splitncnn_0 block0.convblock.7.beta_splitncnn_1
MemoryData               block1.convblock.0.beta  0 1 block1.convblock.0.beta 0=1 1=1 2=128
Split                    splitncnn_8              1 2 block1.convblock.0.beta block1.convblock.0.beta_splitncnn_0 block1.convblock.0.beta_splitncnn_1
MemoryData               block1.convblock.1.beta  0 1 block1.convblock.1.beta 0=1 1=1 2=128
Split                    splitncnn_9              1 2 block1.convblock.1.beta block1.convblock.1.beta_splitncnn_0 block1.convblock.1.beta_splitncnn_1
MemoryData               block1.convblock.2.beta  0 1 block1.convblock.2.beta 0=1 1=1 2=128
Split                    splitncnn_10             1 2 block1.convblock.2.beta block1.convblock.2.beta_splitncnn_0 block1.convblock.2.beta_splitncnn_1
MemoryData               block1.convblock.3.beta  0 1 block1.convblock.3.beta 0=1 1=1 2=128
Split                    splitncnn_11             1 2 block1.convblock.3.beta block1.convblock.3.beta_splitncnn_0 block1.convblock.3.beta_splitncnn_1
MemoryData               block1.convblock.4.beta  0 1 block1.convblock.4.beta 0=1 1=1 2=128
Split                    splitncnn_12             1 2 block1.convblock.4.beta block1.convblock.4.beta_splitncnn_0 block1.convblock.4.beta_splitncnn_1
MemoryData               block1.convblock.5.beta  0 1 block1.convblock.5.beta 0=1 1=1 2=128
Split                    splitncnn_13             1 2 block1.convblock.5.beta block1.convblock.5.beta_splitncnn_0 block1.convblock.5.beta_splitncnn_1
MemoryData               block1.convblock.6.beta  0 1 block1.convblock.6.beta 0=1 1=1 2=128
Split                    splitncnn_14             1 2 block1.convblock.6.beta block1.convblock.6.beta_splitncnn_0 block1.convblock.6.beta_splitncnn_1
MemoryData               block1.convblock.7.beta  0 1 block1.convblock.7.beta 0=1 1=1 2=128
Split                    splitncnn_15             1 2 block1.convblock.7.beta block1.convblock.7.beta_splitncnn_0 block1.convblock.7.beta_splitncnn_1
MemoryData               block2.convblock.0.beta  0 1 block2.convblock.0.beta 0=1 1=1 2=96
Split                    splitncnn_16             1 2 block2.convblock.0.beta block2.convblock.0.beta_splitncnn_0 block2.convblock.0.beta_splitncnn_1
MemoryData               block2.convblock.1.beta  0 1 block2.convblock.1.beta 0=1 1=1 2=96
Split                    splitncnn_17             1 2 block2.convblock.1.beta block2.convblock.1.beta_splitncnn_0 block2.convblock.1.beta_splitncnn_1
MemoryData               block2.convblock.2.beta  0 1 block2.convblock.2.beta 0=1 1=1 2=96
Split                    splitncnn_18             1 2 block2.convblock.2.beta block2.convblock.2.beta_splitncnn_0 block2.convblock.2.beta_splitncnn_1
MemoryData               block2.convblock.3.beta  0 1 block2.convblock.3.beta 0=1 1=1 2=96
Split                    splitncnn_19             1 2 block2.convblock.3.beta block2.convblock.3.beta_splitncnn_0 block2.convblock.3.beta_splitncnn_1
MemoryData               block2.convblock.4.beta  0 1 block2.convblock.4.beta 0=1 1=1 2=96
Split                    splitncnn_20             1 2 block2.convblock.4.beta block2.convblock.4.beta_splitncnn_0 block2.convblock.4.beta_splitncnn_1
MemoryData               block2.convblock.5.beta  0 1 block2.convblock.5.beta 0=1 1=1 2=96
Split                    splitncnn_21             1 2 block2.convblock.5.beta block2.convblock.5.beta_splitncnn_0 block2.convblock.5.beta_splitncnn_1
MemoryData               block2.convblock.6.beta  0 1 block2.convblock.6.beta 0=1 1=1 2=96
Split                    splitncnn_22             1 2 block2.convblock.6.beta block2.convblock.6.beta_splitncnn_0 block2.convblock.6.beta_splitncnn_1
MemoryData               block2.convblock.7.beta  0 1 block2.convblock.7.beta 0=1 1=1 2=96
Split                    splitncnn_23             1 2 block2.convblock.7.beta block2.convblock.7.beta_splitncnn_0 block2.convblock.7.beta_splitncnn_1
MemoryData               block3.convblock.0.beta  0 1 block3.convblock.0.beta 0=1 1=1 2=64
Split                    splitncnn_24             1 2 block3.convblock.0.beta block3.convblock.0.beta_splitncnn_0 block3.convblock.0.beta_splitncnn_1
MemoryData               block3.convblock.1.beta  0 1 block3.convblock.1.beta 0=1 1=1 2=64
Split                    splitncnn_25             1 2 block3.convblock.1.beta block3.convblock.1.beta_splitncnn_0 block3.convblock.1.beta_splitncnn_1
MemoryData               block3.convblock.2.beta  0 1 block3.convblock.2.beta 0=1 1=1 2=64
Split                    splitncnn_26             1 2 block3.convblock.2.beta block3.convblock.2.beta_splitncnn_0 block3.convblock.2.beta_splitncnn_1
MemoryData               block3.convblock.3.beta  0 1 block3.convblock.3.beta 0=1 1=1 2=64
Split                    splitncnn_27             1 2 block3.convblock.3.beta block3.convblock.3.beta_splitncnn_0 block3.convblock.3.beta_splitncnn_1
MemoryData               block3.convblock.4.beta  0 1 block3.convblock.4.beta 0=1 1=1 2=64
Split                    splitncnn_28             1 2 block3.convblock.4.beta block3.convblock.4.beta_splitncnn_0 block3.convblock.4.beta_splitncnn_1
MemoryData               block3.convblock.5.beta  0 1 block3.convblock.5.beta 0=1 1=1 2=64
Split                    splitncnn_29             1 2 block3.convblock.5.beta block3.convblock.5.beta_splitncnn_0 block3.convblock.5.beta_splitncnn_1
MemoryData               block3.convblock.6.beta  0 1 block3.convblock.6.beta 0=1 1=1 2=64
Split                    splitncnn_30             1 2 block3.convblock.6.beta block3.convblock.6.beta_splitncnn_0 block3.convblock.6.beta_splitncnn_1
MemoryData               block3.convblock.7.beta  0 1 block3.convblock.7.beta 0=1 1=1 2=64
Split                    splitncnn_31             1 2 block3.convblock.7.beta block3.convblock.7.beta_splitncnn_0 block3.convblock.7.beta_splitncnn_1
Crop                     Slice_4                  1 1 in0_splitncnn_7 135 -23309=1,0 -23310=1,1 -23311=1,0
BinaryOp                 Mul_6                    1 1 135 137 0=2 1=1
BinaryOp                 Add_8                    1 1 137 139 1=1 2=1.000000e+00
BinaryOp                 Mul_9                    2 1 139 in2 140 0=2
Split                    splitncnn_32             1 8 140 140_splitncnn_0 140_splitncnn_1 140_splitncnn_2 140_splitncnn_3 140_splitncnn_4 140_splitncnn_5 140_splitncnn_6 140_splitncnn_7
Crop                     Slice_15                 1 1 in0_splitncnn_6 146 -23309=1,0 -23310=1,3 -23311=1,0
Convolution              Conv_16                  1 1 146 148 0=32 1=3 3=2 4=1 5=1 6=864 9=2 -23310=1,2.000000e-01
Convolution              Conv_18                  1 1 148 150 0=32 1=3 4=1 5=1 6=9216 9=2 -23310=1,2.000000e-01
Convolution              Conv_20                  1 1 150 152 0=32 1=3 4=1 5=1 6=9216 9=2 -23310=1,2.000000e-01
Deconvolution            ConvTranspose_22         1 1 152 153 0=8 1=4 3=2 4=1 5=1 6=4096
Split                    splitncnn_33             1 5 153 153_splitncnn_0 153_splitncnn_1 153_splitncnn_2 153_splitncnn_3 153_splitncnn_4
Crop                     Slice_27                 1 1 in1_splitncnn_6 158 -23309=1,0 -23310=1,3 -23311=1,0
Convolution              Conv_28                  1 1 158 160 0=32 1=3 3=2 4=1 5=1 6=864 9=2 -23310=1,2.000000e-01
Convolution              Conv_30                  1 1 160 162 0=32 1=3 4=1 5=1 6=9216 9=2 -23310=1,2.000000e-01
Convolution              Conv_32                  1 1 162 164 0=32 1=3 4=1 5=1 6=9216 9=2 -23310=1,2.000000e-01
Deconvolution            ConvTranspose_34         1 1 164 165 0=8 1=4 3=2 4=1 5=1 6=4096
Split                    splitncnn_34             1 5 165 165_splitncnn_0 165_splitncnn_1 165_splitncnn_2 165_splitncnn_3 165_splitncnn_4
Crop                     Slice_39                 1 1 in0_splitncnn_5 170 -23309=1,0 -23310=1,3 -23311=1,0
Crop                     Slice_44                 1 1 in1_splitncnn_5 175 -23309=1,0 -23310=1,3 -23311=1,0
Concat                   Concat_45                5 1 170 175 153_splitncnn_4 165_splitncnn_4 140_splitncnn_7 176
Interp                   Resize_47                1 1 176 181 0=2 1=1.250000e-01 2=1.250000e-01
Convolution              Conv_48                  1 1 181 183 0=96 1=3 3=2 4=1 5=1 6=19872 9=2 -23310=1,2.000000e-01
Convolution              Conv_50                  1 1 183 185 0=192 1=3 3=2 4=1 5=1 6=165888 9=2 -23310=1,2.000000e-01
Split                    splitncnn_35             1 2 185 185_splitncnn_0 185_splitncnn_1
Convolution              Conv_52                  1 1 185_splitncnn_1 186 0=192 1=3 4=1 5=1 6=331776
BinaryOp                 Mul_53                   2 1 186 block0.convblock.0.beta_splitncnn_1 187 0=2
BinaryOp                 Add_54                   2 1 187 185_splitncnn_0 188
ReLU                     LeakyRelu_55             1 1 188 189 0=2.000000e-01
Split                    splitncnn_36             1 2 189 189_splitncnn_0 189_splitncnn_1
Convolution              Conv_56                  1 1 189_splitncnn_1 190 0=192 1=3 4=1 5=1 6=331776
BinaryOp                 Mul_57                   2 1 190 block0.convblock.1.beta_splitncnn_1 191 0=2
BinaryOp                 Add_58                   2 1 191 189_splitncnn_0 192
ReLU                     LeakyRelu_59             1 1 192 193 0=2.000000e-01
Split                    splitncnn_37             1 2 193 193_splitncnn_0 193_splitncnn_1
Convolution              Conv_60                  1 1 193_splitncnn_1 194 0=192 1=3 4=1 5=1 6=331776
BinaryOp                 Mul_61                   2 1 194 block0.convblock.2.beta_splitncnn_1 195 0=2
BinaryOp                 Add_62                   2 1 195 193_splitncnn_0 196
ReLU                     LeakyRelu_63             1 1 196 197 0=2.000000e-01
Split                    splitncnn_38             1 2 197 197_splitncnn_0 197_splitncnn_1
Convolution              Conv_64                  1 1 197_splitncnn_1 198 0=192 1=3 4=1 5=1 6=331776
BinaryOp                 Mul_65                   2 1 198 block0.convblock.3.beta_splitncnn_1 199 0=2
BinaryOp                 Add_66                   2 1 199 197_splitncnn_0 200
ReLU                     LeakyRelu_67             1 1 200 201 0=2.000000e-01
Split                    splitncnn_39             1 2 201 201_splitncnn_0 201_splitncnn_1
Convolution              Conv_68                  1 1 201_splitncnn_1 202 0=192 1=3 4=1 5=1 6=331776
BinaryOp                 Mul_69                   2 1 202 block0.convblock.4.beta_splitncnn_1 203 0=2
BinaryOp                 Add_70                   2 1 203 201_splitncnn_0 204
ReLU                     LeakyRelu_71             1 1 204 205 0=2.000000e-01
Split                    splitncnn_40             1 2 205 205_splitncnn_0 205_splitncnn_1
Convolution              Conv_72                  1 1 205_splitncnn_1 206 0=192 1=3 4=1 5=1 6=331776
BinaryOp                 Mul_73                   2 1 206 block0.convblock.5.beta_splitncnn_1 207 0=2
BinaryOp                 Add_74                   2 1 207 205_splitncnn_0 208
ReLU                     LeakyRelu_75             1 1 208 209 0=2.000000e-01
Split                    splitncnn_41             1 2 209 209_splitncnn_0 209_splitncnn_1
Convolution              Conv_76                  1 1 209_splitncnn_1 210 0=192 1=3 4=1 5=1 6=331776
BinaryOp                 Mul_77                   2 1 210 block0.convblock.6.beta_splitncnn_1 211 0=2
BinaryOp                 Add_78                   2 1 211 209_splitncnn_0 212
ReLU                     LeakyRelu_79             1 1 212 213 0=2.000000e-01
Split                    splitncnn_42             1 2 213 213_splitncnn_0 213_splitncnn_1
Convolution              Conv_80                  1 1 213_splitncnn_1 214 0=192 1=3 4=1 5=1 6=331776
BinaryOp                 Mul_81                   2 1 214 block0.convblock.7.beta_splitncnn_1 215 0=2
BinaryOp                 Add_82                   2 1 215 213_splitncnn_0 216
ReLU                     LeakyRelu_83             1 1 216 217 0=2.000000e-01
Deconvolution            ConvTranspose_84         1 1 217 218 0=24 1=4 3=2 4=1 5=1 6=73728
PixelShuffle             DepthToSpace_85          1 1 218 219 0=2
Interp                   Resize_87                1 1 219 224 0=2 1=8.000000e+00 2=8.000000e+00
Split                    splitncnn_43             1 2 224 224_splitncnn_0 224_splitncnn_1
Crop                     Slice_92                 1 1 224_splitncnn_1 229 -23309=1,0 -23310=1,4 -23311=1,0
Crop                     Slice_99                 1 1 224_splitncnn_0 236 -23309=1,4 -23310=1,5 -23311=1,0
Crop                     Slice_104                1 1 in1_splitncnn_4 241 -23309=1,0 -23310=1,3 -23311=1,0
Crop                     Slice_109                1 1 in0_splitncnn_4 246 -23309=1,0 -23310=1,3 -23311=1,0
BinaryOp                 Sub_111                  1 1 140_splitncnn_6 248 0=7 1=1 2=1.000000e+00
Concat                   Concat_112               5 1 241 246 165_splitncnn_3 153_splitncnn_3 248 249
Interp                   Resize_114               1 1 249 254 0=2 1=1.250000e-01 2=1.250000e-01
Convolution              Conv_115                 1 1 254 256 0=96 1=3 3=2 4=1 5=1 6=19872 9=2 -23310=1,2.000000e-01
Convolution              Conv_117                 1 1 256 258 0=192 1=3 3=2 4=1 5=1 6=165888 9=2 -23310=1,2.000000e-01
Split                    splitncnn_44             1 2 258 258_splitncnn_0 258_splitncnn_1
Convolution              Conv_119                 1 1 258_splitncnn_1 259 0=192 1=3 4=1 5=1 6=331776
BinaryOp                 Mul_120                  2 1 259 block0.convblock.0.beta_splitncnn_0 260 0=2
BinaryOp                 Add_121                  2 1 260 258_splitncnn_0 261
ReLU                     LeakyRelu_122            1 1 261 262 0=2.000000e-01
Split                    splitncnn_45             1 2 262 262_splitncnn_0 262_splitncnn_1
Convolution              Conv_123                 1 1 262_splitncnn_1 263 0=192 1=3 4=1 5=1 6=331776
BinaryOp                 Mul_124                  2 1 263 block0.convblock.1.beta_splitncnn_0 264 0=2
BinaryOp                 Add_125                  2 1 264 262_splitncnn_0 265
ReLU                     LeakyRelu_126            1 1 265 266 0=2.000000e-01
Split                    splitncnn_46             1 2 266 266_splitncnn_0 266_splitncnn_1
Convolution              Conv_127                 1 1 266_splitncnn_1 267 0=192 1=3 4=1 5=1 6=331776
BinaryOp                 Mul_128                  2 1 267 block0.convblock.2.beta_splitncnn_0 268 0=2
BinaryOp                 Add_129                  2 1 268 266_splitncnn_0 269
ReLU                     LeakyRelu_130            1 1 269 270 0=2.000000e-01
Split                    splitncnn_47             1 2 270 270_splitncnn_0 270_splitncnn_1
Convolution              Conv_131                 1 1 270_splitncnn_1 271 0=192 1=3 4=1 5=1 6=331776
BinaryOp                 Mul_132                  2 1 271 block0.convblock.3.beta_splitncnn_0 272 0=2
BinaryOp                 Add_133                  2 1 272 270_splitncnn_0 273
ReLU                     LeakyRelu_134            1 1 273 274 0=2.000000e-01
Split                    splitncnn_48             1 2 274 274_splitncnn_0 274_splitncnn_1
Convolution              Conv_135                 1 1 274_splitncnn_1 275 0=192 1=3 4=1 5=1 6=331776
BinaryOp                 Mul_136                  2 1 275 block0.convblock.4.beta_splitncnn_0 276 0=2
BinaryOp                 Add_137                  2 1 276 274_splitncnn_0 277
ReLU                     LeakyRelu_138            1 1 277 278 0=2.000000e-01
Split                    splitncnn_49             1 2 278 278_splitncnn_0 278_splitncnn_1
Convolution              Conv_139                 1 1 278_splitncnn_1 279 0=192 1=3 4=1 5=1 6=331776
BinaryOp                 Mul_140                  2 1 279 block0.convblock.5.beta_splitncnn_0 280 0=2
BinaryOp                 Add_141                  2 1 280 278_splitncnn_0 281
ReLU                     LeakyRelu_142            1 1 281 282 0=2.000000e-01
Split                    splitncnn_50             1 2 282 282_splitncnn_0 282_splitncnn_1
Convolution              Conv_143                 1 1 282_splitncnn_1 283 0=192 1=3 4=1 5=1 6=331776
BinaryOp                 Mul_144                  2 1 283 block0.convblock.6.beta_splitncnn_0 284 0=2
BinaryOp                 Add_145                  2 1 284 282_splitncnn_0 285
ReLU                     LeakyRelu_146            1 1 285 286 0=2.000000e-01
Split                    splitncnn_51             1 2 286 286_splitncnn_0 286_splitncnn_1
Convolution              Conv_147                 1 1 286_splitncnn_1 287 0=192 1=3 4=1 5=1 6=331776
BinaryOp                 Mul_148                  2 1 287 block0.convblock.7.beta_splitncnn_0 288 0=2
BinaryOp                 Add_149                  2 1 288 286_splitncnn_0 289
ReLU                     LeakyRelu_150            1 1 289 290 0=2.000000e-01
Deconvolution            ConvTranspose_151        1 1 290 291 0=24 1=4 3=2 4=1 5=1 6=73728
PixelShuffle             DepthToSpace_152         1 1 291 292 0=2
Interp                   Resize_154               1 1 292 297 0=2 1=8.000000e+00 2=8.000000e+00
Split                    splitncnn_52             1 2 297 297_splitncnn_0 297_splitncnn_1
Crop                     Slice_159                1 1 297_splitncnn_1 302 -23309=1,0 -23310=1,4 -23311=1,0
BinaryOp                 Mul_161                  1 1 302 304 0=2 1=1 2=8.000000e+00
Split                    splitncnn_53             1 2 304 304_splitncnn_0 304_splitncnn_1
Crop                     Slice_166                1 1 297_splitncnn_0 309 -23309=1,4 -23310=1,5 -23311=1,0
Crop                     Slice_171                1 1 304_splitncnn_1 314 -23309=1,2 -23310=1,4 -23311=1,0
Crop                     Slice_176                1 1 304_splitncnn_0 319 -23309=1,0 -23310=1,2 -23311=1,0
Concat                   Concat_177               2 1 314 319 320
Eltwise                  Add_178                  2 1 229 320 321 0=1 -23301=2,8.000000e+00,1.000000e+00
BinaryOp                 Div_179                  1 1 321 324 0=3 1=1 2=2.000000e+00
Split                    splitncnn_54             1 8 324 324_splitncnn_0 324_splitncnn_1 324_splitncnn_2 324_splitncnn_3 324_splitncnn_4 324_splitncnn_5 324_splitncnn_6 324_splitncnn_7
UnaryOp                  Neg_180                  1 1 309 325 0=1
BinaryOp                 Add_181                  2 1 236 325 326
BinaryOp                 Div_182                  1 1 326 329 0=3 1=1 2=2.000000e+00
Split                    splitncnn_55             1 2 329 329_splitncnn_0 329_splitncnn_1
Crop                     Slice_187                1 1 324_splitncnn_7 334 -23309=1,0 -23310=1,2 -23311=1,0
rife.Warp                 warp_188                  2 1 in0_splitncnn_3 334 335 0=6
Split                    splitncnn_56             1 2 335 335_splitncnn_0 335_splitncnn_1
Crop                     Slice_193                1 1 324_splitncnn_6 340 -23309=1,2 -23310=1,4 -23311=1,0
rife.Warp                 warp_194                  2 1 in1_splitncnn_3 340 341 0=6
Split                    splitncnn_57             1 2 341 341_splitncnn_0 341_splitncnn_1
Crop                     Slice_199                1 1 324_splitncnn_5 346 -23309=1,0 -23310=1,2 -23311=1,0
rife.Warp                 warp_200                  2 1 153_splitncnn_2 346 347 0=6
Split                    splitncnn_58             1 2 347 347_splitncnn_0 347_splitncnn_1
Crop                     Slice_205                1 1 324_splitncnn_4 352 -23309=1,2 -23310=1,4 -23311=1,0
rife.Warp                 warp_206                  2 1 165_splitncnn_2 352 353 0=6
Split                    splitncnn_59             1 2 353 353_splitncnn_0 353_splitncnn_1
Crop                     Slice_211                1 1 335_splitncnn_1 358 -23309=1,0 -23310=1,3 -23311=1,0
Crop                     Slice_216                1 1 341_splitncnn_1 363 -23309=1,0 -23310=1,3 -23311=1,0
Concat                   Concat_217               6 1 358 363 347_splitncnn_1 353_splitncnn_1 140_splitncnn_5 329_splitncnn_1 364
Interp                   Resize_219               1 1 364 369 0=2 1=2.500000e-01 2=2.500000e-01
Interp                   Resize_221               1 1 324_splitncnn_3 374 0=2 1=2.500000e-01 2=2.500000e-01
BinaryOp                 Div_224                  1 1 374 379 0=3 1=1 2=4.000000e+00
Concat                   Concat_225               2 1 369 379 380
Convolution              Conv_226                 1 1 380 382 0=64 1=3 3=2 4=1 5=1 6=16128 9=2 -23310=1,2.000000e-01
Convolution              Conv_228                 1 1 382 384 0=128 1=3 3=2 4=1 5=1 6=73728 9=2 -23310=1,2.000000e-01
Split                    splitncnn_60             1 2 384 384_splitncnn_0 384_splitncnn_1
Convolution              Conv_230                 1 1 384_splitncnn_1 385 0=128 1=3 4=1 5=1 6=147456
BinaryOp                 Mul_231                  2 1 385 block1.convblock.0.beta_splitncnn_1 386 0=2
BinaryOp                 Add_232                  2 1 386 384_splitncnn_0 387
ReLU                     LeakyRelu_233            1 1 387 388 0=2.000000e-01
Split                    splitncnn_61             1 2 388 388_splitncnn_0 388_splitncnn_1
Convolution              Conv_234                 1 1 388_splitncnn_1 389 0=128 1=3 4=1 5=1 6=147456
BinaryOp                 Mul_235                  2 1 389 block1.convblock.1.beta_splitncnn_1 390 0=2
BinaryOp                 Add_236                  2 1 390 388_splitncnn_0 391
ReLU                     LeakyRelu_237            1 1 391 392 0=2.000000e-01
Split                    splitncnn_62             1 2 392 392_splitncnn_0 392_splitncnn_1
Convolution              Conv_238                 1 1 392_splitncnn_1 393 0=128 1=3 4=1 5=1 6=147456
BinaryOp                 Mul_239                  2 1 393 block1.convblock.2.beta_splitncnn_1 394 0=2
BinaryOp                 Add_240                  2 1 394 392_splitncnn_0 395
ReLU                     LeakyRelu_241            1 1 395 396 0=2.000000e-01
Split                    splitncnn_63             1 2 396 396_splitncnn_0 396_splitncnn_1
Convolution              Conv_242                 1 1 396_splitncnn_1 397 0=128 1=3 4=1 5=1 6=147456
BinaryOp                 Mul_243                  2 1 397 block1.convblock.3.beta_splitncnn_1 398 0=2
BinaryOp                 Add_244                  2 1 398 396_splitncnn_0 399
ReLU                     LeakyRelu_245            1 1 399 400 0=2.000000e-01
Split                    splitncnn_64             1 2 400 400_splitncnn_0 400_splitncnn_1
Convolution              Conv_246                 1 1 400_splitncnn_1 401 0=128 1=3 4=1 5=1 6=147456
BinaryOp                 Mul_247                  2 1 401 block1.convblock.4.beta_splitncnn_1 402 0=2
BinaryOp                 Add_248                  2 1 402 400_splitncnn_0 403
ReLU                     LeakyRelu_249            1 1 403 404 0=2.000000e-01
Split                    splitncnn_65             1 2 404 404_splitncnn_0 404_splitncnn_1
Convolution              Conv_250                 1 1 404_splitncnn_1 405 0=128 1=3 4=1 5=1 6=147456
BinaryOp                 Mul_251                  2 1 405 block1.convblock.5.beta_splitncnn_1 406 0=2
BinaryOp                 Add_252                  2 1 406 404_splitncnn_0 407
ReLU                     LeakyRelu_253            1 1 407 408 0=2.000000e-01
Split                    splitncnn_66             1 2 408 408_splitncnn_0 408_splitncnn_1
Convolution              Conv_254                 1 1 408_splitncnn_1 409 0=128 1=3 4=1 5=1 6=147456
BinaryOp                 Mul_255                  2 1 409 block1.convblock.6.beta_splitncnn_1 410 0=2
BinaryOp                 Add_256                  2 1 410 408_splitncnn_0 411
ReLU                     LeakyRelu_257            1 1 411 412 0=2.000000e-01
Split                    splitncnn_67             1 2 412 412_splitncnn_0 412_splitncnn_1
Convolution              Conv_258                 1 1 412_splitncnn_1 413 0=128 1=3 4=1 5=1 6=147456
BinaryOp                 Mul_259                  2 1 413 block1.convblock.7.beta_splitncnn_1 414 0=2
BinaryOp                 Add_260                  2 1 414 412_splitncnn_0 415
ReLU                     LeakyRelu_261            1 1 415 416 0=2.000000e-01
Deconvolution            ConvTranspose_262        1 1 416 417 0=24 1=4 3=2 4=1 5=1 6=49152
PixelShuffle             DepthToSpace_263         1 1 417 418 0=2
Interp                   Resize_265               1 1 418 423 0=2 1=4.000000e+00 2=4.000000e+00
Split                    splitncnn_68             1 2 423 423_splitncnn_0 423_splitncnn_1
Crop                     Slice_270                1 1 423_splitncnn_1 428 -23309=1,0 -23310=1,4 -23311=1,0
Crop                     Slice_277                1 1 423_splitncnn_0 435 -23309=1,4 -23310=1,5 -23311=1,0
Crop                     Slice_282                1 1 341_splitncnn_0 440 -23309=1,0 -23310=1,3 -23311=1,0
Crop                     Slice_287                1 1 335_splitncnn_0 445 -23309=1,0 -23310=1,3 -23311=1,0
BinaryOp                 Sub_289                  1 1 140_splitncnn_4 447 0=7 1=1 2=1.000000e+00
UnaryOp                  Neg_290                  1 1 329_splitncnn_0 448 0=1
Concat                   Concat_291               6 1 440 445 353_splitncnn_0 347_splitncnn_0 447 448 449
Crop                     Slice_296                1 1 324_splitncnn_2 454 -23309=1,2 -23310=1,4 -23311=1,0
Crop                     Slice_301                1 1 324_splitncnn_1 459 -23309=1,0 -23310=1,2 -23311=1,0
Concat                   Concat_302               2 1 454 459 460
Interp                   Resize_304               1 1 449 465 0=2 1=2.500000e-01 2=2.500000e-01
Interp                   Resize_306               1 1 460 470 0=2 1=2.500000e-01 2=2.500000e-01
BinaryOp                 Div_309                  1 1 470 475 0=3 1=1 2=4.000000e+00
Concat                   Concat_310               2 1 465 475 476
Convolution              Conv_311                 1 1 476 478 0=64 1=3 3=2 4=1 5=1 6=16128 9=2 -23310=1,2.000000e-01
Convolution              Conv_313                 1 1 478 480 0=128 1=3 3=2 4=1 5=1 6=73728 9=2 -23310=1,2.000000e-01
Split                    splitncnn_69             1 2 480 480_splitncnn_0 480_splitncnn_1
Convolution              Conv_315                 1 1 480_splitncnn_1 481 0=128 1=3 4=1 5=1 6=147456
BinaryOp                 Mul_316                  2 1 481 block1.convblock.0.beta_splitncnn_0 482 0=2
BinaryOp                 Add_317                  2 1 482 480_splitncnn_0 483
ReLU                     LeakyRelu_318            1 1 483 484 0=2.000000e-01
Split                    splitncnn_70             1 2 484 484_splitncnn_0 484_splitncnn_1
Convolution              Conv_319                 1 1 484_splitncnn_1 485 0=128 1=3 4=1 5=1 6=147456
BinaryOp                 Mul_320                  2 1 485 block1.convblock.1.beta_splitncnn_0 486 0=2
BinaryOp                 Add_321                  2 1 486 484_splitncnn_0 487
ReLU                     LeakyRelu_322            1 1 487 488 0=2.000000e-01
Split                    splitncnn_71             1 2 488 488_splitncnn_0 488_splitncnn_1
Convolution              Conv_323                 1 1 488_splitncnn_1 489 0=128 1=3 4=1 5=1 6=147456
BinaryOp                 Mul_324                  2 1 489 block1.convblock.2.beta_splitncnn_0 490 0=2
BinaryOp                 Add_325                  2 1 490 488_splitncnn_0 491
ReLU                     LeakyRelu_326            1 1 491 492 0=2.000000e-01
Split                    splitncnn_72             1 2 492 492_splitncnn_0 492_splitncnn_1
Convolution              Conv_327                 1 1 492_splitncnn_1 493 0=128 1=3 4=1 5=1 6=147456
BinaryOp                 Mul_328                  2 1 493 block1.convblock.3.beta_splitncnn_0 494 0=2
BinaryOp                 Add_329                  2 1 494 492_splitncnn_0 495
ReLU                     LeakyRelu_330            1 1 495 496 0=2.000000e-01
Split                    splitncnn_73             1 2 496 496_splitncnn_0 496_splitncnn_1
Convolution              Conv_331                 1 1 496_splitncnn_1 497 0=128 1=3 4=1 5=1 6=147456
BinaryOp                 Mul_332                  2 1 497 block1.convblock.4.beta_splitncnn_0 498 0=2
BinaryOp                 Add_333                  2 1 498 496_splitncnn_0 499
ReLU                     LeakyRelu_334            1 1 499 500 0=2.000000e-01
Split                    splitncnn_74             1 2 500 500_splitncnn_0 500_splitncnn_1
Convolution              Conv_335                 1 1 500_splitncnn_1 501 0=128 1=3 4=1 5=1 6=147456
BinaryOp                 Mul_336                  2 1 501 block1.convblock.5.beta_splitncnn_0 502 0=2
BinaryOp                 Add_337                  2 1 502 500_splitncnn_0 503
ReLU                     LeakyRelu_338            1 1 503 504 0=2.000000e-01
Split                    splitncnn_75             1 2 504 504_splitncnn_0 504_splitncnn_1
Convolution              Conv_339                 1 1 504_splitncnn_1 505 0=128 1=3 4=1 5=1 6=147456
BinaryOp                 Mul_340                  2 1 505 block1.convblock.6.beta_splitncnn_0 506 0=2
BinaryOp                 Add_341                  2 1 506 504_splitncnn_0 507
ReLU                     LeakyRelu_342            1 1 507 508 0=2.000000e-01
Split                    splitncnn_76             1 2 508 508_splitncnn_0 508_splitncnn_1
Convolution              Conv_343                 1 1 508_splitncnn_1 509 0=128 1=3 4=1 5=1 6=147456
BinaryOp                 Mul_344                  2 1 509 block1.convblock.7.beta_splitncnn_0 510 0=2
BinaryOp                 Add_345                  2 1 510 508_splitncnn_0 511
ReLU                     LeakyRelu_346            1 1 511 512 0=2.000000e-01
Deconvolution            ConvTranspose_347        1 1 512 513 0=24 1=4 3=2 4=1 5=1 6=49152
PixelShuffle             DepthToSpace_348         1 1 513 514 0=2
Interp                   Resize_350               1 1 514 519 0=2 1=4.000000e+00 2=4.000000e+00
Split                    splitncnn_77             1 2 519 519_splitncnn_0 519_splitncnn_1
Crop                     Slice_355                1 1 519_splitncnn_1 524 -23309=1,0 -23310=1,4 -23311=1,0
BinaryOp                 Mul_357                  1 1 524 526 0=2 1=1 2=4.000000e+00
Split                    splitncnn_78             1 2 526 526_splitncnn_0 526_splitncnn_1
Crop                     Slice_362                1 1 519_splitncnn_0 531 -23309=1,4 -23310=1,5 -23311=1,0
Crop                     Slice_367                1 1 526_splitncnn_1 536 -23309=1,2 -23310=1,4 -23311=1,0
Crop                     Slice_372                1 1 526_splitncnn_0 541 -23309=1,0 -23310=1,2 -23311=1,0
Concat                   Concat_373               2 1 536 541 542
Eltwise                  Add_374                  2 1 428 542 543 0=1 -23301=2,4.000000e+00,1.000000e+00
BinaryOp                 Div_375                  1 1 543 546 0=3 1=1 2=2.000000e+00
UnaryOp                  Neg_376                  1 1 531 547 0=1
BinaryOp                 Add_377                  2 1 435 547 548
BinaryOp                 Div_378                  1 1 548 551 0=3 1=1 2=2.000000e+00
Split                    splitncnn_79             1 2 551 551_splitncnn_0 551_splitncnn_1
BinaryOp                 Add_379                  2 1 324_splitncnn_0 546 552
Split                    splitncnn_80             1 8 552 552_splitncnn_0 552_splitncnn_1 552_splitncnn_2 552_splitncnn_3 552_splitncnn_4 552_splitncnn_5 552_splitncnn_6 552_splitncnn_7
Crop                     Slice_384                1 1 552_splitncnn_7 557 -23309=1,0 -23310=1,2 -23311=1,0
rife.Warp                 warp_385                  2 1 in0_splitncnn_2 557 558 0=6
Split                    splitncnn_81             1 2 558 558_splitncnn_0 558_splitncnn_1
Crop                     Slice_390                1 1 552_splitncnn_6 563 -23309=1,2 -23310=1,4 -23311=1,0
rife.Warp                 warp_391                  2 1 in1_splitncnn_2 563 564 0=6
Split                    splitncnn_82             1 2 564 564_splitncnn_0 564_splitncnn_1
Crop                     Slice_396                1 1 552_splitncnn_5 569 -23309=1,0 -23310=1,2 -23311=1,0
rife.Warp                 warp_397                  2 1 153_splitncnn_1 569 570 0=6
Split                    splitncnn_83             1 2 570 570_splitncnn_0 570_splitncnn_1
Crop                     Slice_402                1 1 552_splitncnn_4 575 -23309=1,2 -23310=1,4 -23311=1,0
rife.Warp                 warp_403                  2 1 165_splitncnn_1 575 576 0=6
Split                    splitncnn_84             1 2 576 576_splitncnn_0 576_splitncnn_1
Crop                     Slice_408                1 1 558_splitncnn_1 581 -23309=1,0 -23310=1,3 -23311=1,0
Crop                     Slice_413                1 1 564_splitncnn_1 586 -23309=1,0 -23310=1,3 -23311=1,0
Concat                   Concat_414               6 1 581 586 570_splitncnn_1 576_splitncnn_1 140_splitncnn_3 551_splitncnn_1 587
Interp                   Resize_416               1 1 587 592 0=2 1=5.000000e-01 2=5.000000e-01
Interp                   Resize_418               1 1 552_splitncnn_3 597 0=2 1=5.000000e-01 2=5.000000e-01
BinaryOp                 Div_421                  1 1 597 602 0=3 1=1 2=2.000000e+00
Concat                   Concat_422               2 1 592 602 603
Convolution              Conv_423                 1 1 603 605 0=48 1=3 3=2 4=1 5=1 6=12096 9=2 -23310=1,2.000000e-01
Convolution              Conv_425                 1 1 605 607 0=96 1=3 3=2 4=1 5=1 6=41472 9=2 -23310=1,2.000000e-01
Split                    splitncnn_85             1 2 607 607_splitncnn_0 607_splitncnn_1
Convolution              Conv_427                 1 1 607_splitncnn_1 608 0=96 1=3 4=1 5=1 6=82944
BinaryOp                 Mul_428                  2 1 608 block2.convblock.0.beta_splitncnn_1 609 0=2
BinaryOp                 Add_429                  2 1 609 607_splitncnn_0 610
ReLU                     LeakyRelu_430            1 1 610 611 0=2.000000e-01
Split                    splitncnn_86             1 2 611 611_splitncnn_0 611_splitncnn_1
Convolution              Conv_431                 1 1 611_splitncnn_1 612 0=96 1=3 4=1 5=1 6=82944
BinaryOp                 Mul_432                  2 1 612 block2.convblock.1.beta_splitncnn_1 613 0=2
BinaryOp                 Add_433                  2 1 613 611_splitncnn_0 614
ReLU                     LeakyRelu_434            1 1 614 615 0=2.000000e-01
Split                    splitncnn_87             1 2 615 615_splitncnn_0 615_splitncnn_1
Convolution              Conv_435                 1 1 615_splitncnn_1 616 0=96 1=3 4=1 5=1 6=82944
BinaryOp                 Mul_436                  2 1 616 block2.convblock.2.beta_splitncnn_1 617 0=2
BinaryOp                 Add_437                  2 1 617 615_splitncnn_0 618
ReLU                     LeakyRelu_438            1 1 618 619 0=2.000000e-01
Split                    splitncnn_88             1 2 619 619_splitncnn_0 619_splitncnn_1
Convolution              Conv_439                 1 1 619_splitncnn_1 620 0=96 1=3 4=1 5=1 6=82944
BinaryOp                 Mul_440                  2 1 620 block2.convblock.3.beta_splitncnn_1 621 0=2
BinaryOp                 Add_441                  2 1 621 619_splitncnn_0 622
ReLU                     LeakyRelu_442            1 1 622 623 0=2.000000e-01
Split                    splitncnn_89             1 2 623 623_splitncnn_0 623_splitncnn_1
Convolution              Conv_443                 1 1 623_splitncnn_1 624 0=96 1=3 4=1 5=1 6=82944
BinaryOp                 Mul_444                  2 1 624 block2.convblock.4.beta_splitncnn_1 625 0=2
BinaryOp                 Add_445                  2 1 625 623_splitncnn_0 626
ReLU                     LeakyRelu_446            1 1 626 627 0=2.000000e-01
Split                    splitncnn_90             1 2 627 627_splitncnn_0 627_splitncnn_1
Convolution              Conv_447                 1 1 627_splitncnn_1 628 0=96 1=3 4=1 5=1 6=82944
BinaryOp                 Mul_448                  2 1 628 block2.convblock.5.beta_splitncnn_1 629 0=2
BinaryOp                 Add_449                  2 1 629 627_splitncnn_0 630
ReLU                     LeakyRelu_450            1 1 630 631 0=2.000000e-01
Split                    splitncnn_91             1 2 631 631_splitncnn_0 631_splitncnn_1
Convolution              Conv_451                 1 1 631_splitncnn_1 632 0=96 1=3 4=1 5=1 6=82944
BinaryOp                 Mul_452                  2 1 632 block2.convblock.6.beta_splitncnn_1 633 0=2
BinaryOp                 Add_453                  2 1 633 631_splitncnn_0 634
ReLU                     LeakyRelu_454            1 1 634 635 0=2.000000e-01
Split                    splitncnn_92             1 2 635 635_splitncnn_0 635_splitncnn_1
Convolution              Conv_455                 1 1 635_splitncnn_1 636 0=96 1=3 4=1 5=1 6=82944
BinaryOp                 Mul_456                  2 1 636 block2.convblock.7.beta_splitncnn_1 637 0=2
BinaryOp                 Add_457                  2 1 637 635_splitncnn_0 638
ReLU                     LeakyRelu_458            1 1 638 639 0=2.000000e-01
Deconvolution            ConvTranspose_459        1 1 639 640 0=24 1=4 3=2 4=1 5=1 6=36864
PixelShuffle             DepthToSpace_460         1 1 640 641 0=2
Interp                   Resize_462               1 1 641 646 0=2 1=2.000000e+00 2=2.000000e+00
Split                    splitncnn_93             1 2 646 646_splitncnn_0 646_splitncnn_1
Crop                     Slice_467                1 1 646_splitncnn_1 651 -23309=1,0 -23310=1,4 -23311=1,0
Crop                     Slice_474                1 1 646_splitncnn_0 658 -23309=1,4 -23310=1,5 -23311=1,0
Crop                     Slice_479                1 1 564_splitncnn_0 663 -23309=1,0 -23310=1,3 -23311=1,0
Crop                     Slice_484                1 1 558_splitncnn_0 668 -23309=1,0 -23310=1,3 -23311=1,0
BinaryOp                 Sub_486                  1 1 140_splitncnn_2 670 0=7 1=1 2=1.000000e+00
UnaryOp                  Neg_487                  1 1 551_splitncnn_0 671 0=1
Concat                   Concat_488               6 1 663 668 576_splitncnn_0 570_splitncnn_0 670 671 672
Crop                     Slice_493                1 1 552_splitncnn_2 677 -23309=1,2 -23310=1,4 -23311=1,0
Crop                     Slice_498                1 1 552_splitncnn_1 682 -23309=1,0 -23310=1,2 -23311=1,0
Concat                   Concat_499               2 1 677 682 683
Interp                   Resize_501               1 1 672 688 0=2 1=5.000000e-01 2=5.000000e-01
Interp                   Resize_503               1 1 683 693 0=2 1=5.000000e-01 2=5.000000e-01
BinaryOp                 Div_506                  1 1 693 698 0=3 1=1 2=2.000000e+00
Concat                   Concat_507               2 1 688 698 699
Convolution              Conv_508                 1 1 699 701 0=48 1=3 3=2 4=1 5=1 6=12096 9=2 -23310=1,2.000000e-01
Convolution              Conv_510                 1 1 701 703 0=96 1=3 3=2 4=1 5=1 6=41472 9=2 -23310=1,2.000000e-01
Split                    splitncnn_94             1 2 703 703_splitncnn_0 703_splitncnn_1
Convolution              Conv_512                 1 1 703_splitncnn_1 704 0=96 1=3 4=1 5=1 6=82944
BinaryOp                 Mul_513                  2 1 704 block2.convblock.0.beta_splitncnn_0 705 0=2
BinaryOp                 Add_514                  2 1 705 703_splitncnn_0 706
ReLU                     LeakyRelu_515            1 1 706 707 0=2.000000e-01
Split                    splitncnn_95             1 2 707 707_splitncnn_0 707_splitncnn_1
Convolution              Conv_516                 1 1 707_splitncnn_1 708 0=96 1=3 4=1 5=1 6=82944
BinaryOp                 Mul_517                  2 1 708 block2.convblock.1.beta_splitncnn_0 709 0=2
BinaryOp                 Add_518                  2 1 709 707_splitncnn_0 710
ReLU                     LeakyRelu_519            1 1 710 711 0=2.000000e-01
Split                    splitncnn_96             1 2 711 711_splitncnn_0 711_splitncnn_1
Convolution              Conv_520                 1 1 711_splitncnn_1 712 0=96 1=3 4=1 5=1 6=82944
BinaryOp                 Mul_521                  2 1 712 block2.convblock.2.beta_splitncnn_0 713 0=2
BinaryOp                 Add_522                  2 1 713 711_splitncnn_0 714
ReLU                     LeakyRelu_523            1 1 714 715 0=2.000000e-01
Split                    splitncnn_97             1 2 715 715_splitncnn_0 715_splitncnn_1
Convolution              Conv_524                 1 1 715_splitncnn_1 716 0=96 1=3 4=1 5=1 6=82944
BinaryOp                 Mul_525                  2 1 716 block2.convblock.3.beta_splitncnn_0 717 0=2
BinaryOp                 Add_526                  2 1 717 715_splitncnn_0 718
ReLU                     LeakyRelu_527            1 1 718 719 0=2.000000e-01
Split                    splitncnn_98             1 2 719 719_splitncnn_0 719_splitncnn_1
Convolution              Conv_528                 1 1 719_splitncnn_1 720 0=96 1=3 4=1 5=1 6=82944
BinaryOp                 Mul_529                  2 1 720 block2.convblock.4.beta_splitncnn_0 721 0=2
BinaryOp                 Add_530                  2 1 721 719_splitncnn_0 722
ReLU                     LeakyRelu_531            1 1 722 723 0=2.000000e-01
Split                    splitncnn_99             1 2 723 723_splitncnn_0 723_splitncnn_1
Convolution              Conv_532                 1 1 723_splitncnn_1 724 0=96 1=3 4=1 5=1 6=82944
BinaryOp                 Mul_533                  2 1 724 block2.convblock.5.beta_splitncnn_0 725 0=2
BinaryOp                 Add_534                  2 1 725 723_splitncnn_0 726
ReLU                     LeakyRelu_535            1 1 726 727 0=2.000000e-01
Split                    splitncnn_100            1 2 727 727_splitncnn_0 727_splitncnn_1
Convolution              Conv_536                 1 1 727_splitncnn_1 728 0=96 1=3 4=1 5=1 6=82944
BinaryOp                 Mul_537                  2 1 728 block2.convblock.6.beta_splitncnn_0 729 0=2
BinaryOp                 Add_538                  2 1 729 727_splitncnn_0 730
ReLU                     LeakyRelu_539            1 1 730 731 0=2.000000e-01
Split                    splitncnn_101            1 2 731 731_splitncnn_0 731_splitncnn_1
Convolution              Conv_540                 1 1 731_splitncnn_1 732 0=96 1=3 4=1 5=1 6=82944
BinaryOp                 Mul_541                  2 1 732 block2.convblock.7.beta_splitncnn_0 733 0=2
BinaryOp                 Add_542                  2 1 733 731_splitncnn_0 734
ReLU                     LeakyRelu_543            1 1 734 735 0=2.000000e-01
Deconvolution            ConvTranspose_544        1 1 735 736 0=24 1=4 3=2 4=1 5=1 6=36864
PixelShuffle             DepthToSpace_545         1 1 736 737 0=2
Interp                   Resize_547               1 1 737 742 0=2 1=2.000000e+00 2=2.000000e+00
Split                    splitncnn_102            1 2 742 742_splitncnn_0 742_splitncnn_1
Crop                     Slice_552                1 1 742_splitncnn_1 747 -23309=1,0 -23310=1,4 -23311=1,0
BinaryOp                 Mul_554                  1 1 747 749 0=2 1=1 2=2.000000e+00
Split                    splitncnn_103            1 2 749 749_splitncnn_0 749_splitncnn_1
Crop                     Slice_559                1 1 742_splitncnn_0 754 -23309=1,4 -23310=1,5 -23311=1,0
Crop                     Slice_564                1 1 749_splitncnn_1 759 -23309=1,2 -23310=1,4 -23311=1,0
Crop                     Slice_569                1 1 749_splitncnn_0 764 -23309=1,0 -23310=1,2 -23311=1,0
Concat                   Concat_570               2 1 759 764 765
Eltwise                  Add_571                  2 1 651 765 766 0=1 -23301=2,2.000000e+00,1.000000e+00
BinaryOp                 Div_572                  1 1 766 769 0=3 1=1 2=2.000000e+00
UnaryOp                  Neg_573                  1 1 754 770 0=1
BinaryOp                 Add_574                  2 1 658 770 771
BinaryOp                 Div_575                  1 1 771 774 0=3 1=1 2=2.000000e+00
Split                    splitncnn_104            1 2 774 774_splitncnn_0 774_splitncnn_1
BinaryOp                 Add_576                  2 1 552_splitncnn_0 769 775
Split                    splitncnn_105            1 8 775 775_splitncnn_0 775_splitncnn_1 775_splitncnn_2 775_splitncnn_3 775_splitncnn_4 775_splitncnn_5 775_splitncnn_6 775_splitncnn_7
Crop                     Slice_581                1 1 775_splitncnn_7 780 -23309=1,0 -23310=1,2 -23311=1,0
rife.Warp                 warp_582                  2 1 in0_splitncnn_1 780 781 0=6
Split                    splitncnn_106            1 2 781 781_splitncnn_0 781_splitncnn_1
Crop                     Slice_587                1 1 775_splitncnn_6 786 -23309=1,2 -23310=1,4 -23311=1,0
rife.Warp                 warp_588                  2 1 in1_splitncnn_1 786 787 0=6
Split                    splitncnn_107            1 2 787 787_splitncnn_0 787_splitncnn_1
Crop                     Slice_593                1 1 775_splitncnn_5 792 -23309=1,0 -23310=1,2 -23311=1,0
rife.Warp                 warp_594                  2 1 153_splitncnn_0 792 793 0=6
Split                    splitncnn_108            1 2 793 793_splitncnn_0 793_splitncnn_1
Crop                     Slice_599                1 1 775_splitncnn_4 798 -23309=1,2 -23310=1,4 -23311=1,0
rife.Warp                 warp_600                  2 1 165_splitncnn_0 798 799 0=6
Split                    splitncnn_109            1 2 799 799_splitncnn_0 799_splitncnn_1
Crop                     Slice_605                1 1 781_splitncnn_1 804 -23309=1,0 -23310=1,3 -23311=1,0
Crop                     Slice_610                1 1 787_splitncnn_1 809 -23309=1,0 -23310=1,3 -23311=1,0
Concat                   Concat_611               6 1 804 809 793_splitncnn_1 799_splitncnn_1 140_splitncnn_1 774_splitncnn_1 810
Interp                   Resize_613               1 1 810 815 0=2
Interp                   Resize_615               1 1 775_splitncnn_3 820 0=2
Concat                   Concat_619               2 1 815 820 826
Convolution              Conv_620                 1 1 826 828 0=32 1=3 3=2 4=1 5=1 6=8064 9=2 -23310=1,2.000000e-01
Convolution              Conv_622                 1 1 828 830 0=64 1=3 3=2 4=1 5=1 6=18432 9=2 -23310=1,2.000000e-01
Split                    splitncnn_110            1 2 830 830_splitncnn_0 830_splitncnn_1
Convolution              Conv_624                 1 1 830_splitncnn_1 831 0=64 1=3 4=1 5=1 6=36864
BinaryOp                 Mul_625                  2 1 831 block3.convblock.0.beta_splitncnn_1 832 0=2
BinaryOp                 Add_626                  2 1 832 830_splitncnn_0 833
ReLU                     LeakyRelu_627            1 1 833 834 0=2.000000e-01
Split                    splitncnn_111            1 2 834 834_splitncnn_0 834_splitncnn_1
Convolution              Conv_628                 1 1 834_splitncnn_1 835 0=64 1=3 4=1 5=1 6=36864
BinaryOp                 Mul_629                  2 1 835 block3.convblock.1.beta_splitncnn_1 836 0=2
BinaryOp                 Add_630                  2 1 836 834_splitncnn_0 837
ReLU                     LeakyRelu_631            1 1 837 838 0=2.000000e-01
Split                    splitncnn_112            1 2 838 838_splitncnn_0 838_splitncnn_1
Convolution              Conv_632                 1 1 838_splitncnn_1 839 0=64 1=3 4=1 5=1 6=36864
BinaryOp                 Mul_633                  2 1 839 block3.convblock.2.beta_splitncnn_1 840 0=2
BinaryOp                 Add_634                  2 1 840 838_splitncnn_0 841
ReLU                     LeakyRelu_635            1 1 841 842 0=2.000000e-01
Split                    splitncnn_113            1 2 842 842_splitncnn_0 842_splitncnn_1
Convolution              Conv_636                 1 1 842_splitncnn_1 843 0=64 1=3 4=1 5=1 6=36864
BinaryOp                 Mul_637                  2 1 843 block3.convblock.3.beta_splitncnn_1 844 0=2
BinaryOp                 Add_638                  2 1 844 842_splitncnn_0 845
ReLU                     LeakyRelu_639            1 1 845 846 0=2.000000e-01
Split                    splitncnn_114            1 2 846 846_splitncnn_0 846_splitncnn_1
Convolution              Conv_640                 1 1 846_splitncnn_1 847 0=64 1=3 4=1 5=1 6=36864
BinaryOp                 Mul_641                  2 1 847 block3.convblock.4.beta_splitncnn_1 848 0=2
BinaryOp                 Add_642                  2 1 848 846_splitncnn_0 849
ReLU                     LeakyRelu_643            1 1 849 850 0=2.000000e-01
Split                    splitncnn_115            1 2 850 850_splitncnn_0 850_splitncnn_1
Convolution              Conv_644                 1 1 850_splitncnn_1 851 0=64 1=3 4=1 5=1 6=36864
BinaryOp                 Mul_645                  2 1 851 block3.convblock.5.beta_splitncnn_1 852 0=2
BinaryOp                 Add_646                  2 1 852 850_splitncnn_0 853
ReLU                     LeakyRelu_647            1 1 853 854 0=2.000000e-01
Split                    splitncnn_116            1 2 854 854_splitncnn_0 854_splitncnn_1
Convolution              Conv_648                 1 1 854_splitncnn_1 855 0=64 1=3 4=1 5=1 6=36864
BinaryOp                 Mul_649                  2 1 855 block3.convblock.6.beta_splitncnn_1 856 0=2
BinaryOp                 Add_650                  2 1 856 854_splitncnn_0 857
ReLU                     LeakyRelu_651            1 1 857 858 0=2.000000e-01
Split                    splitncnn_117            1 2 858 858_splitncnn_0 858_splitncnn_1
Convolution              Conv_652                 1 1 858_splitncnn_1 859 0=64 1=3 4=1 5=1 6=36864
BinaryOp                 Mul_653                  2 1 859 block3.convblock.7.beta_splitncnn_1 860 0=2
BinaryOp                 Add_654                  2 1 860 858_splitncnn_0 861
ReLU                     LeakyRelu_655            1 1 861 862 0=2.000000e-01
Deconvolution            ConvTranspose_656        1 1 862 863 0=24 1=4 3=2 4=1 5=1 6=24576
PixelShuffle             DepthToSpace_657         1 1 863 864 0=2
Interp                   Resize_659               1 1 864 869 0=2
Split                    splitncnn_118            1 2 869 869_splitncnn_0 869_splitncnn_1
Crop                     Slice_664                1 1 869_splitncnn_1 874 -23309=1,0 -23310=1,4 -23311=1,0
Crop                     Slice_671                1 1 869_splitncnn_0 881 -23309=1,4 -23310=1,5 -23311=1,0
Crop                     Slice_676                1 1 787_splitncnn_0 886 -23309=1,0 -23310=1,3 -23311=1,0
Crop                     Slice_681                1 1 781_splitncnn_0 891 -23309=1,0 -23310=1,3 -23311=1,0
BinaryOp                 Sub_683                  1 1 140_splitncnn_0 893 0=7 1=1 2=1.000000e+00
UnaryOp                  Neg_684                  1 1 774_splitncnn_0 894 0=1
Concat                   Concat_685               6 1 886 891 799_splitncnn_0 793_splitncnn_0 893 894 895
Crop                     Slice_690                1 1 775_splitncnn_2 900 -23309=1,2 -23310=1,4 -23311=1,0
Crop                     Slice_695                1 1 775_splitncnn_1 905 -23309=1,0 -23310=1,2 -23311=1,0
Concat                   Concat_696               2 1 900 905 906
Interp                   Resize_698               1 1 895 911 0=2
Interp                   Resize_700               1 1 906 916 0=2
Concat                   Concat_704               2 1 911 916 922
Convolution              Conv_705                 1 1 922 924 0=32 1=3 3=2 4=1 5=1 6=8064 9=2 -23310=1,2.000000e-01
Convolution              Conv_707                 1 1 924 926 0=64 1=3 3=2 4=1 5=1 6=18432 9=2 -23310=1,2.000000e-01
Split                    splitncnn_119            1 2 926 926_splitncnn_0 926_splitncnn_1
Convolution              Conv_709                 1 1 926_splitncnn_1 927 0=64 1=3 4=1 5=1 6=36864
BinaryOp                 Mul_710                  2 1 927 block3.convblock.0.beta_splitncnn_0 928 0=2
BinaryOp                 Add_711                  2 1 928 926_splitncnn_0 929
ReLU                     LeakyRelu_712            1 1 929 930 0=2.000000e-01
Split                    splitncnn_120            1 2 930 930_splitncnn_0 930_splitncnn_1
Convolution              Conv_713                 1 1 930_splitncnn_1 931 0=64 1=3 4=1 5=1 6=36864
BinaryOp                 Mul_714                  2 1 931 block3.convblock.1.beta_splitncnn_0 932 0=2
BinaryOp                 Add_715                  2 1 932 930_splitncnn_0 933
ReLU                     LeakyRelu_716            1 1 933 934 0=2.000000e-01
Split                    splitncnn_121            1 2 934 934_splitncnn_0 934_splitncnn_1
Convolution              Conv_717                 1 1 934_splitncnn_1 935 0=64 1=3 4=1 5=1 6=36864
BinaryOp                 Mul_718                  2 1 935 block3.convblock.2.beta_splitncnn_0 936 0=2
BinaryOp                 Add_719                  2 1 936 934_splitncnn_0 937
ReLU                     LeakyRelu_720            1 1 937 938 0=2.000000e-01
Split                    splitncnn_122            1 2 938 938_splitncnn_0 938_splitncnn_1
Convolution              Conv_721                 1 1 938_splitncnn_1 939 0=64 1=3 4=1 5=1 6=36864
BinaryOp                 Mul_722                  2 1 939 block3.convblock.3.beta_splitncnn_0 940 0=2
BinaryOp                 Add_723                  2 1 940 938_splitncnn_0 941
ReLU                     LeakyRelu_724            1 1 941 942 0=2.000000e-01
Split                    splitncnn_123            1 2 942 942_splitncnn_0 942_splitncnn_1
Convolution              Conv_725                 1 1 942_splitncnn_1 943 0=64 1=3 4=1 5=1 6=36864
BinaryOp                 Mul_726                  2 1 943 block3.convblock.4.beta_splitncnn_0 944 0=2
BinaryOp                 Add_727                  2 1 944 942_splitncnn_0 945
ReLU                     LeakyRelu_728            1 1 945 946 0=2.000000e-01
Split                    splitncnn_124            1 2 946 946_splitncnn_0 946_splitncnn_1
Convolution              Conv_729                 1 1 946_splitncnn_1 947 0=64 1=3 4=1 5=1 6=36864
BinaryOp                 Mul_730                  2 1 947 block3.convblock.5.beta_splitncnn_0 948 0=2
BinaryOp                 Add_731                  2 1 948 946_splitncnn_0 949
ReLU                     LeakyRelu_732            1 1 949 950 0=2.000000e-01
Split                    splitncnn_125            1 2 950 950_splitncnn_0 950_splitncnn_1
Convolution              Conv_733                 1 1 950_splitncnn_1 951 0=64 1=3 4=1 5=1 6=36864
BinaryOp                 Mul_734                  2 1 951 block3.convblock.6.beta_splitncnn_0 952 0=2
BinaryOp                 Add_735                  2 1 952 950_splitncnn_0 953
ReLU                     LeakyRelu_736            1 1 953 954 0=2.000000e-01
Split                    splitncnn_126            1 2 954 954_splitncnn_0 954_splitncnn_1
Convolution              Conv_737                 1 1 954_splitncnn_1 955 0=64 1=3 4=1 5=1 6=36864
BinaryOp                 Mul_738                  2 1 955 block3.convblock.7.beta_splitncnn_0 956 0=2
BinaryOp                 Add_739                  2 1 956 954_splitncnn_0 957
ReLU                     LeakyRelu_740            1 1 957 958 0=2.000000e-01
Deconvolution            ConvTranspose_741        1 1 958 959 0=24 1=4 3=2 4=1 5=1 6=24576
PixelShuffle             DepthToSpace_742         1 1 959 960 0=2
Interp                   Resize_744               1 1 960 965 0=2
Split                    splitncnn_127            1 2 965 965_splitncnn_0 965_splitncnn_1
Crop                     Slice_749                1 1 965_splitncnn_1 970 -23309=1,0 -23310=1,4 -23311=1,0
Split                    splitncnn_128            1 2 970 970_splitncnn_0 970_splitncnn_1
Crop                     Slice_756                1 1 965_splitncnn_0 977 -23309=1,4 -23310=1,5 -23311=1,0
Crop                     Slice_761                1 1 970_splitncnn_1 982 -23309=1,2 -23310=1,4 -23311=1,0
Crop                     Slice_766                1 1 970_splitncnn_0 987 -23309=1,0 -23310=1,2 -23311=1,0
Concat                   Concat_767               2 1 982 987 988
BinaryOp                 Add_768                  2 1 874 988 989
BinaryOp                 Div_769                  1 1 989 992 0=3 1=1 2=2.000000e+00
UnaryOp                  Neg_770                  1 1 977 993 0=1
BinaryOp                 Add_771                  2 1 881 993 994
BinaryOp                 Div_772                  1 1 994 997 0=3 1=1 2=2.000000e+00
BinaryOp                 Add_773                  2 1 775_splitncnn_0 992 998
Split                    splitncnn_129            1 2 998 998_splitncnn_0 998_splitncnn_1
Crop                     Slice_778                1 1 998_splitncnn_1 1003 -23309=1,0 -23310=1,2 -23311=1,0
rife.Warp                 warp_779                  2 1 in0_splitncnn_0 1003 1004 0=6
Crop                     Slice_784                1 1 998_splitncnn_0 1009 -23309=1,2 -23310=1,4 -23311=1,0
rife.Warp                 warp_785                  2 1 in1_splitncnn_0 1009 1010 0=6
Sigmoid                  Sigmoid_786              1 1 997 1011
Split                    splitncnn_130            1 2 1011 1011_splitncnn_0 1011_splitncnn_1
BinaryOp                 Mul_787                  2 1 1004 1011_splitncnn_1 1012 0=2
BinaryOp                 Sub_789                  1 1 1011_splitncnn_0 1014 0=7 1=1 2=1.000000e+00
BinaryOp                 Mul_790                  2 1 1010 1014 1015 0=2
BinaryOp                 Add_791                  2 1 1012 1015 out0
